Train: 1789
Valid: 596
Test: 597
ConvolutionalClassifier(
  (blocks): Sequential(
    (0): ConvolutionBlock(
      (layers): Sequential(
        (0): Conv2d(3, 4, kernel_size=(3, 3), stride=(1, 1), padding=(1, 1))
        (1): ReLU()
        (2): BatchNorm2d(4, eps=1e-05, momentum=0.1, affine=True, track_running_stats=True)
        (3): Conv2d(4, 4, kernel_size=(3, 3), stride=(2, 2), padding=(1, 1))
        (4): ReLU()
        (5): BatchNorm2d(4, eps=1e-05, momentum=0.1, affine=True, track_running_stats=True)
      )
    )
    (1): ConvolutionBlock(
      (layers): Sequential(
        (0): Conv2d(4, 5, kernel_size=(3, 3), stride=(1, 1), padding=(1, 1))
        (1): ReLU()
        (2): BatchNorm2d(5, eps=1e-05, momentum=0.1, affine=True, track_running_stats=True)
        (3): Conv2d(5, 5, kernel_size=(3, 3), stride=(2, 2), padding=(1, 1))
        (4): ReLU()
        (5): BatchNorm2d(5, eps=1e-05, momentum=0.1, affine=True, track_running_stats=True)
      )
    )
    (2): ConvolutionBlock(
      (layers): Sequential(
        (0): Conv2d(5, 8, kernel_size=(3, 3), stride=(1, 1), padding=(1, 1))
        (1): ReLU()
        (2): BatchNorm2d(8, eps=1e-05, momentum=0.1, affine=True, track_running_stats=True)
        (3): Conv2d(8, 8, kernel_size=(3, 3), stride=(2, 2), padding=(1, 1))
        (4): ReLU()
        (5): BatchNorm2d(8, eps=1e-05, momentum=0.1, affine=True, track_running_stats=True)
      )
    )
    (3): ConvolutionBlock(
      (layers): Sequential(
        (0): Conv2d(8, 16, kernel_size=(3, 3), stride=(1, 1), padding=(1, 1))
        (1): ReLU()
        (2): BatchNorm2d(16, eps=1e-05, momentum=0.1, affine=True, track_running_stats=True)
        (3): Conv2d(16, 16, kernel_size=(3, 3), stride=(2, 2), padding=(1, 1))
        (4): ReLU()
        (5): BatchNorm2d(16, eps=1e-05, momentum=0.1, affine=True, track_running_stats=True)
      )
    )
    (4): ConvolutionBlock(
      (layers): Sequential(
        (0): Conv2d(16, 32, kernel_size=(3, 3), stride=(1, 1), padding=(1, 1))
        (1): ReLU()
        (2): BatchNorm2d(32, eps=1e-05, momentum=0.1, affine=True, track_running_stats=True)
        (3): Conv2d(32, 32, kernel_size=(3, 3), stride=(2, 2), padding=(1, 1))
        (4): ReLU()
        (5): BatchNorm2d(32, eps=1e-05, momentum=0.1, affine=True, track_running_stats=True)
      )
    )
    (5): ConvolutionBlock(
      (layers): Sequential(
        (0): Conv2d(32, 64, kernel_size=(3, 3), stride=(1, 1), padding=(1, 1))
        (1): ReLU()
        (2): BatchNorm2d(64, eps=1e-05, momentum=0.1, affine=True, track_running_stats=True)
        (3): Conv2d(64, 64, kernel_size=(3, 3), stride=(2, 2), padding=(1, 1))
        (4): ReLU()
        (5): BatchNorm2d(64, eps=1e-05, momentum=0.1, affine=True, track_running_stats=True)
      )
    )
    (6): ConvolutionBlock(
      (layers): Sequential(
        (0): Conv2d(64, 128, kernel_size=(3, 3), stride=(1, 1), padding=(1, 1))
        (1): ReLU()
        (2): BatchNorm2d(128, eps=1e-05, momentum=0.1, affine=True, track_running_stats=True)
        (3): Conv2d(128, 128, kernel_size=(3, 3), stride=(2, 2), padding=(1, 1))
        (4): ReLU()
        (5): BatchNorm2d(128, eps=1e-05, momentum=0.1, affine=True, track_running_stats=True)
      )
    )
    (7): ConvolutionBlock(
      (layers): Sequential(
        (0): Conv2d(128, 256, kernel_size=(3, 3), stride=(1, 1), padding=(1, 1))
        (1): ReLU()
        (2): BatchNorm2d(256, eps=1e-05, momentum=0.1, affine=True, track_running_stats=True)
        (3): Conv2d(256, 256, kernel_size=(3, 3), stride=(2, 2), padding=(1, 1))
        (4): ReLU()
        (5): BatchNorm2d(256, eps=1e-05, momentum=0.1, affine=True, track_running_stats=True)
      )
    )
    (8): ConvolutionBlock(
      (layers): Sequential(
        (0): Conv2d(256, 512, kernel_size=(3, 3), stride=(1, 1), padding=(1, 1))
        (1): ReLU()
        (2): BatchNorm2d(512, eps=1e-05, momentum=0.1, affine=True, track_running_stats=True)
        (3): Conv2d(512, 512, kernel_size=(3, 3), stride=(2, 2), padding=(1, 1))
        (4): ReLU()
        (5): BatchNorm2d(512, eps=1e-05, momentum=0.1, affine=True, track_running_stats=True)
      )
    )
  )
  (layers): Sequential(
    (0): Linear(in_features=512, out_features=50, bias=True)
    (1): ReLU()
    (2): BatchNorm1d(50, eps=1e-05, momentum=0.1, affine=True, track_running_stats=True)
    (3): Linear(in_features=50, out_features=10, bias=True)
    (4): LogSoftmax(dim=-1)
  )
)
Adam (
Parameter Group 0
    amsgrad: False
    betas: (0.9, 0.999)
    eps: 1e-08
    lr: 0.001
    weight_decay: 0
)
NLLLoss()
Epoch 1 - |param|=5.30e+01 |g_param|=4.65e+01 loss=2.3552e+00 accuracy=0.1533
Validation - loss=2.2157e+00 accuracy=0.3054 best_loss=inf
Epoch 2 - |param|=5.37e+01 |g_param|=1.85e+01 loss=1.7241e+00 accuracy=0.5815
…
